2-code-(chatbot)/data.pth (torch, 14687 bytes, 6 tensors)

l1.weight f4 [8, 222]
0	0x3f5dffa8	0.86718225
1	0x3ea3a8fb	0.3196486
2	0x3e872cd1	0.2640138
3	0x3ea0ee80	0.3143196
4	0xbf7feccd	-0.99970704
5	0xbeb363e2	-0.35037142
6	0xbeb9fbe9	-0.36325005
7	0xbf8d2c64	-1.1029172
8	0x3eb3d73b	0.35125145
9	0x3d63eea3	0.055647504
10	0xbe78dbf9	-0.24302663
11	0x3f3a5196	0.7278074
12	0xbf07ddf0	-0.53073025
13	0xbf4c9dc2	-0.7992822
14	0x3e38e3d9	0.18055667
15	0x3f384716	0.7198347
16	0x3e3a6182	0.18201259
17	0xbd17adf6	-0.037031136
18	0x3f0fca67	0.56168216
19	0xbf2ca900	-0.67445374
20	0xbe2ef5d5	-0.17085965
21	0x3ec3fc30	0.3827834
22	0xbd49d053	-0.04927094
23	0x3ed20411	0.41018727
24	0xbea67d2b	-0.3251737
25	0x3ecbf2fb	0.39833817
26	0xbe4992d5	-0.19684918
27	0xbed7884a	-0.42096168
28	0x3e87afe3	0.26501378
29	0x3c50c254	0.012741644
30	0x3ee29dce	0.4426102
31	0x3f252cc8	0.64521456
32	0xbdcdf0f2	-0.10055722
33	0x3f030a02	0.51187146
34	0x3ecf16aa	0.4044698
35	0xbec93e4f	-0.3930535
36	0x3ee76351	0.4519296
37	0x3d9ad7d2	0.07560696
38	0xbdf39bba	-0.11894937
39	0xbf2361b6	-0.6382097
40	0xbe13925f	-0.14411305
41	0x3f3b4680	0.7315445
42	0xbe729921	-0.23691227
43	0x3e52630a	0.20545593
44	0x3ec3facb	0.38277277
45	0xbc96df2b	-0.018416962
46	0x3ea8d8cb	0.329779
47	0x3ed095a3	0.40739164
48	0x3f8415d6	1.0319164
49	0x3f001d51	0.50044733
50	0x3f2ce88e	0.6754235
51	0xbe91a1eb	-0.28443846
52	0x3f3db266	0.7410034
53	0xbdeae6f8	-0.11469835
54	0xbe497571	-0.19673707
55	0xbdedb089	-0.11605937
56	0xbe02ecc4	-0.12785631
57	0x3de44f83	0.11147978
58	0x3e61a5a4	0.22035843
59	0x3d891338	0.06693119
60	0xbea9c8f1	-0.3316112
61	0x3ef77704	0.4833299
62	0xbec0add0	-0.37632608
63	0x3ecce801	0.40020755
64	0x3f5a1c0f	0.85199064
65	0x3e882199	0.26588133
66	0xbf07e3a1	-0.5308171
67	0x3f506404	0.8140261
68	0xbef335be	-0.4750194
69	0x3ed8d9f0	0.42353773
70	0xbe240a8d	-0.1601965
71	0x3e9ba58f	0.3039975
72	0x3eca03a0	0.3945589
73	0x3ecf9b9c	0.40548408
74	0xbf21da3c	-0.63223624
75	0xbee0fa09	-0.43940762
76	0x3f33ba37	0.70206016
77	0x3ea8082d	0.32818738
78	0x3eabc23d	0.3354663
79	0x3e89a2c3	0.2688199
80	0x3f18cab0	0.59684277
81	0x3f84dab1	1.0379239
82	0x3ebe16a0	0.37126637
83	0x3f8371b6	1.0269077
84	0x3f813996	1.0095699
85	0xbf09fc9c	-0.53901076
86	0x3eb96a10	0.36213732
87	0xbe1113a4	-0.14167649
88	0x3d85360e	0.06504451
89	0x3e940267	0.28908083
90	0xbe23dd54	-0.16002399
91	0xbd9b8344	-0.07593396
92	0x3d898562	0.06714894
93	0xbac86c8f	-0.0015291142
94	0x3db113cc	0.08646354
95	0xbdedeaa8	-0.11617023
96	0x3eb7cf72	0.35900456
97	0x3e5187fe	0.20462033
98	0xbe5749db	-0.21024267
99	0xbc80f053	-0.015739596
100	0xbc9239a3	-0.017849749
101	0xbf2ccdeb	-0.67501706
102	0x3f0b5e02	0.5444032
103	0xbf2ca0b1	-0.67432696
104	0xbe764622	-0.24050191
105	0xbf180a81	-0.5939103
106	0xbedbc9a2	-0.4292727
107	0x3f14004b	0.5781295
108	0x3f0b1404	0.54327416
109	0xbee37ba2	-0.44430262
110	0xbd477c20	-0.04870236
111	0x3efd2d12	0.49448448
112	0xbfba08a5	-1.4533888
113	0xbf82ecef	-1.0228556
114	0xbeb7b698	-0.35881495
115	0xbe13f1a1	-0.14447643
116	0x3ee43aaf	0.44576022
117	0x3f5e2173	0.8676979
118	0xbf13e4af	-0.5777082
119	0x3bf8fd4e	0.0075985556
120	0x3e4c7759	0.19967403
121	0x3e0c8c02	0.13725284
122	0x3e499172	0.19684389
123	0xbf008ef5	-0.50218135
124	0x3d2d8019	0.04235849
125	0x3f2af508	0.6678014
126	0x3f224bf3	0.6339714
127	0xbeb93a7b	-0.3617743
128	0xbe7eb43f	-0.24873446
129	0x3e22d822	0.1590276
130	0xbf0391ae	-0.51394165
131	0xbe391ce5	-0.18077429
132	0xbf137747	-0.5760388
133	0xbf1c5b33	-0.6107666
134	0xbe1773cd	-0.14790268
135	0xbd4ed94a	-0.05050019
136	0x3eeb610d	0.4597248
137	0xbe0d858a	-0.13820472
138	0xbed83a57	-0.4223201
139	0x3c590bd2	0.013247447
140	0x3ec6c549	0.38822392
141	0xbebffe42	-0.3749867
142	0xbe8d2456	-0.27566785
143	0xbd56727c	-0.052355275
144	0x3e1bceb6	0.15215573
145	0x3ee32a3d	0.44368163
146	0x3ebbbe5d	0.36668673
147	0x3ee6eeb2	0.45103985
148	0xbce97080	-0.028496027
149	0x3ee3f3cd	0.44521943
150	0x3e1b3dfe	0.15160367
151	0x3e9fa556	0.3118083
152	0xbe3126ed	-0.17300005
153	0x3e8fc3a2	0.28078943
154	0xbee1788c	-0.44037282
155	0x3dc3b549	0.09556062
156	0x3ecd2f20	0.40075016
157	0x3f464a48	0.77457094
158	0xbec610b6	-0.38684624
159	0xbe93dc03	-0.28878793
160	0xbd03aa45	-0.032144804
161	0xbf2a6ff6	-0.6657709
162	0xbcc78ddc	-0.024359636
163	0x3eb1dd5e	0.34739202
164	0xbcc1c804	-0.023654945
165	0x3ed2366e	0.41057152
166	0x3eec2c1a	0.46127397
167	0xbf08884a	-0.5333296
168	0xbf20bc04	-0.6278689
169	0xbf0d2282	-0.5513078
170	0xbcd05cc7	-0.025434865
171	0xbdab122e	-0.08353077
172	0xbcc2dc1c	-0.023786597
173	0x3e3c2b3f	0.18375872
174	0xbe4b871d	-0.1987576
175	0xbe7411eb	-0.2383496
176	0x3df98408	0.12183386
177	0xbe8b47b5	-0.27203146
178	0x3dbca440	0.09211016
179	0xbf081148	-0.5315137
180	0xbf120cf8	-0.5705104
181	0x3f566598	0.8374877
182	0x3e68b657	0.22725807
183	0x3db807a8	0.08985835
184	0xbf2f7e8f	-0.6855249
185	0x3f324fcc	0.6965301
186	0xbce7e52f	-0.028307525
187	0x3ee947f6	0.45562714
188	0xbea37017	-0.31921455
189	0x3f1d36e9	0.6141191
190	0x3d0979d9	0.03356347
191	0x3d9e204e	0.077210054
192	0xbeb37f88	-0.35058236
193	0x3d015ec4	0.031584516
194	0xbcbe0e34	-0.023200132
195	0x3e3f3676	0.18673119
196	0x3f043533	0.51643676
197	0x3d7cea49	0.06174687
198	0x3de9a010	0.114074826
199	0xbd699b44	-0.05703284
200	0x3f09d17d	0.5383528
201	0xbf03d84b	-0.5150191
202	0x3ebaaea8	0.36461377
203	0x3f5a4f53	0.8527729
204	0xbd1598ad	-0.036522556
205	0xbe8b1667	-0.2716553
206	0xbdf5ffa1	-0.12011648
207	0x3e9c654f	0.30546042
208	0x3f05ad83	0.5221788
209	0xbe448cfd	-0.19194408
210	0x3f0fe32c	0.5620601
211	0x3ebd7451	0.37002805
212	0x3f1eef53	0.6208393
213	0x3d3dcc1c	0.046337232
214	0x3ec4485b	0.38336453
215	0x3f55e446	0.8355144
216	0xbebb1d34	-0.36545718
217	0xbe826c6b	-0.2547334
218	0x3dd4ba9f	0.10387158
219	0x3e943e50	0.2895379
220	0xbedaac90	-0.4270978
221	0x3f619e85	0.88132507
222	0xbe93f48b	-0.2889751
223	0x3ea5f3ea	0.32412654
224	0x3e8cb77e	0.27483743
225	0xbd4b6f34	-0.0496666
226	0x3f330a58	0.6993766
227	0x3e4b28aa	0.19839731
228	0x3e4ff271	0.20307328
229	0x3f83c0bb	1.0293192
230	0x3eb37dce	0.3505692
231	0xbe3fde8c	-0.18737239
232	0x3e23e85c	0.16006607
233	0xbd8e1627	-0.06937819
234	0x3ed7c914	0.42145598
235	0xbf43b5ea	-0.76449454
236	0xbf07a1e6	-0.5298141
237	0xbecfab6a	-0.40560466
238	0x3e8c2e84	0.2737924
239	0x3f43c1e2	0.76467717
240	0x3e27ec12	0.16398647
241	0x3eeec99c	0.4663819
242	0x3eb310bc	0.34973705
243	0xbef56d89	-0.4793513
244	0x3d331516	0.04372128
245	0x3dd54b5b	0.104147635
246	0x3e9ea1e5	0.3098289
247	0x3f0e91fc	0.55691504
248	0x3e029e03	0.12755589
249	0x3eb92203	0.3615876
250	0x3e9af6fb	0.30266556
251	0x3f02fd2d	0.51167566
252	0x3ec862c7	0.3913786
253	0x3f49b5d3	0.78793067
254	0x3f1a2fcd	0.6022919
255	0xbe9f2856	-0.3108546

l1.bias f4 [8]
0	0x3fc9e8f9	1.5774223
1	0x3f817af2	1.0115645
2	0x3f980afc	1.1878352
3	0x3f535ce2	0.825636
4	0x3f34a06f	0.705573
5	0x3f41d965	0.7572234
6	0x3f29eed4	0.6638005
7	0x3f83fd57	1.0311688

l2.weight f4 [8, 8]
0	0xbf42d10d	-0.76100236
1	0x3ffd1899	1.9773132
2	0x4000fcbe	2.0154262
3	0x402ff57c	2.7493582
4	0x3da789c7	0.08180576
5	0x3f0195d3	0.5061924
6	0xbfc0d350	-1.5064487
7	0xbf41a06b	-0.75635403
8	0x40088038	2.1328259
9	0x3fa8377f	1.3141936
10	0x3ff24c94	1.892962
11	0xbf9816c9	-1.1881953
12	0xbfc0f72e	-1.5075433
13	0xbf6dab04	-0.92839074
14	0x3f4b4575	0.7940286
15	0x3e2d359b	0.1691498
16	0xbfb1fc95	-1.3905207
17	0x40038a0e	2.0553012
18	0x3f834d99	1.0258056
19	0x3e3f5e1e	0.18688247
20	0x3fe8c337	1.8184575
21	0x3f0de15e	0.5542201
22	0xbf0edf12	-0.5580913
23	0x401b97d8	2.4311428
24	0x400cf7ba	2.20262
25	0x3f89d249	1.0767299
26	0x3e42c19d	0.1901917
27	0xbf6815fa	-0.90658534
28	0xbf8727a5	-1.0558974
29	0x400e8cde	2.2273479
30	0xbffe466d	-1.9865242
31	0x3f57219b	0.8403565
32	0x3f61bf3a	0.88182414
33	0x3f803e1a	1.0018952
34	0x3e2f36cb	0.17110746
35	0xbf813bb0	-1.009634
36	0x3fef1e96	1.8681209
37	0x40155946	2.3335738
38	0x3ff2c6cd	1.8966919
39	0xbff939b9	-1.947074
40	0x3d5035c0	0.05083251
41	0xbe9a9fea	-0.3020013
42	0xbe8a7bd8	-0.2704761
43	0xbe9b028e	-0.30275387
44	0xbe4a3d02	-0.19749835
45	0xbe49a7a8	-0.19692862
46	0xbe9b4b68	-0.30330968
47	0xbea6fa08	-0.32612634
48	0x3fddba39	1.7322456
49	0x3f8952ff	1.0728453
50	0xbff28e30	-1.8949642
51	0x40018638	2.023817
52	0xbf2c4da9	-0.67306
53	0x3bd3af13	0.0064600795
54	0x402185c2	2.523789
55	0x40171d3a	2.3611588
56	0x3fb94399	1.4473754
57	0xc006c71b	-2.1059024
58	0x40092716	2.1430106
59	0x3fc78c41	1.5589677
60	0x3fe95b5e	1.8231008
61	0xbfbd2c56	-1.4779155
62	0xbea7f1dc	-0.32801712
63	0x3f8108de	1.0080831

l2.bias f4 [8]
0	0x3f36d0c1	0.71412283
1	0x3f889c68	1.0672731
2	0xbe59310a	-0.21210113
3	0x3f288cc5	0.658398
4	0x3f0716ed	0.52769357
5	0xbdc6fe0c	-0.09716424
6	0x3f500a7a	0.81265986
7	0x3f590ed8	0.84788275

l3.weight f4 [39, 8]
0	0xbff2ad17	-1.8959073
1	0x3f1134ee	0.5672139
2	0x3cc5fb3d	0.024167651
3	0x3f646106	0.89210546
4	0xbf2b247a	-0.66852534
5	0xbd04eef0	-0.03245443
6	0x3e374b62	0.1789985
7	0xbffad1af	-1.959524
8	0xbf2b71ab	-0.6697032
9	0xc019b42c	-2.4016218
10	0x3ef4cff2	0.478149
11	0x3e081a68	0.13291323
12	0xbdd65e5f	-0.104672186
13	0x3e0df774	0.13863927
14	0x3ebaf29e	0.36513227
15	0xbfffb66e	-1.9977548
16	0xbf5136d5	-0.8172429
17	0xbf1ce63b	-0.61288804
18	0x3da73d8c	0.08166036
19	0x3eaa9a76	0.3332097
20	0xbf9185eb	-1.1368994
21	0x3e750532	0.23927763
22	0xbe462dc6	-0.19353399
23	0x3f05c5aa	0.52254736
24	0xc010cb4a	-2.2624078
25	0x3f00412c	0.50099444
26	0xc0122fec	-2.284175
27	0xbfe7e468	-1.8116579
28	0xbf88df5a	-1.0693161
29	0x3e8c94b3	0.27457199
30	0x3f6bd546	0.92122304
31	0x3e618218	0.22022283
32	0xbf144522	-0.5791799
33	0x3ed2e9c3	0.4119397
34	0x3ed4ee22	0.4158793
35	0xbf59e73e	-0.8511847
36	0x3f357462	0.7088071
37	0x3ddadde0	0.106868505
38	0xbf0a43df	-0.54009813
39	0xc0059751	-2.0873606
40	0x3efbb1f0	0.49159193
41	0xbf6cd261	-0.9250851
42	0x3e0dd56f	0.1385095
43	0xbcb3aecc	-0.021933936
44	0x3f1cf1b8	0.61306334
45	0x3e637826	0.22213802
46	0xbfe1876b	-1.7619451
47	0xc005ef34	-2.0927248
48	0xc01bef1b	-2.4364688
49	0xbe811e64	-0.252185
50	0xbde46c72	-0.11153497
51	0xbfaadfeb	-1.3349584
52	0xbfa73d51	-1.3065587
53	0xbe7af753	-0.24508409
54	0x3f0543f0	0.5205679
55	0x3f1063cb	0.5640227
56	0x3e9c6cab	0.30551657
57	0x3eef04c9	0.46683338
58	0x3ca91e0c	0.02064421
59	0x3eb8537d	0.36001197
60	0xbeac500f	-0.3365483
61	0xbe9a3446	-0.30118006
62	0xc00e35df	-2.222038
63	0xbf8e9fc2	-1.1142504
64	0x3f339dfe	0.7016295
65	0xc012af9b	-2.291968
66	0x3ebe5a50	0.37178278
67	0xbf267ba1	-0.6503239
68	0xbf980f8e	-1.1879747
69	0xbdc72cfc	-0.09725377
70	0xbece2d6f	-0.40269038
71	0x3e6bb320	0.2301755
72	0xbf9610c5	-1.1723868
73	0xc01aa27a	-2.4161668
74	0xbe6b05f6	-0.22951493
75	0xbf89b93d	-1.0759655
76	0xbdb99b7f	-0.09062862
77	0x3e968c43	0.29403886
78	0x3ee09f18	0.4387138
79	0x3e9d3421	0.30703834
80	0xbfc781a0	-1.5586433
81	0x3e9a6fe9	0.30163506
82	0xc02b7374	-2.6789217
83	0x3f866358	1.0499067
84	0x3ecf62ce	0.4050507
85	0xbdcd4464	-0.1002281
86	0xbe6a1714	-0.22860366
87	0xbfc215f9	-1.5162956
88	0x3ea3cd20	0.31992435
89	0x3f399963	0.72499675
90	0xbd84b768	-0.064802945
91	0x3dedaf28	0.11605674
92	0xc057c179	-3.3711836
93	0x3d6db3f0	0.05803293
94	0xbeb45718	-0.35222697
95	0x3d8cf3f4	0.06882468
96	0xbec057c1	-0.3756695
97	0x3f753e07	0.9579777
98	0xbfa804b2	-1.3126433
99	0x3efd6df5	0.49497953
100	0xbe8ddeae	-0.27708954
101	0x3e876493	0.2644392
102	0xbf2b7e60	-0.6698971
103	0xbda9c167	-0.08288842
104	0x3ed37409	0.41299465
105	0xbe27578a	-0.16341987
106	0x3e9d547e	0.30728525
107	0xbf0ce65e	-0.5503901
108	0xbe9e69a4	-0.30939972
109	0x3e23745a	0.15962353
110	0xbf4dfb7a	-0.8046185
111	0xbe89e26c	-0.2693056
112	0x3e9c7eba	0.30565435
113	0xc01c9e60	-2.4471664
114	0xbe773e2b	-0.24144809
115	0xbe7e8a15	-0.24857362
116	0x3ec29514	0.38004363
117	0xbd36dfb0	-0.04464692
118	0xbe59b9b7	-0.21262251
119	0xbf31e159	-0.6948448
120	0xc0452261	-3.0802233
121	0x3fa8735f	1.3160208
122	0xc03a71be	-2.9131923
123	0x3e6bce2e	0.2302787
124	0xbe83b919	-0.25727156
125	0x3e343aea	0.17600599
126	0x3eabc15e	0.33545965
127	0xbe82a85b	-0.2551907
128	0xbe6e5d74	-0.23277837
129	0xbea633e0	-0.32461452
130	0x3e79baec	0.24387711
131	0xc036784e	-2.8510928
132	0xbfe0eef0	-1.7572918
133	0xbe5a9677	-0.2134646
134	0x3f16726b	0.5876834
135	0xbe2a436c	-0.16627282
136	0xbf76b24a	-0.963658
137	0xbed7f1b5	-0.42176595
138	0xc0164799	-2.34812
139	0xc007ee28	-2.123911
140	0x3f0fc508	0.5616002
141	0xbe505e9c	-0.2034859
142	0x3ec86913	0.39142665
143	0x3edf3599	0.4359558
144	0x3f275eb2	0.6537887
145	0xbf0e9436	-0.556949
146	0x3f4a7047	0.7907757
147	0xbf9257fc	-1.1433101
148	0xc03a3277	-2.9093301
149	0xbb556000	-0.003255844
150	0x3ddaecde	0.1068971
151	0xbf0296f0	-0.5101156
152	0xc00af585	-2.1712353
153	0x3f052a47	0.52017635
154	0x3c01c2f3	0.007920015
155	0x3e7e97cc	0.24862593
156	0xc028039f	-2.625221
157	0x3e9769ff	0.29573056
158	0x3f2086dd	0.62705785
159	0xbeab00a4	-0.33398926
160	0xbe36edda	-0.1786417
161	0xbd89f0c2	-0.06735374
162	0xbf8072fd	-1.0035092
163	0x3e662d44	0.22478205
164	0x3f003f2d	0.500964
165	0xbd80863c	-0.06275603
166	0x3cbd0525	0.023073742
167	0xc0250d29	-2.5789282
168	0x3f012b54	0.5045674
169	0xbfda30c7	-1.7046136
170	0x3ef6e3fb	0.4822081
171	0x3cc264c8	0.023729697
172	0xbead97de	-0.33904928
173	0xbe80beec	-0.25145662
174	0xbf2cf27f	-0.6755752
175	0xbfb72954	-1.4309487
176	0xbec1de89	-0.37865093
177	0xbfb2fbf0	-1.3983135
178	0x3e47fde2	0.19530442
179	0xbec76cbd	-0.38950148
180	0x3f104eb5	0.563701
181	0x3ea612d5	0.32436243
182	0xc001236e	-2.0177875
183	0x3e110582	0.14162257
184	0x3e4d421a	0.20044747
185	0x3c67299a	0.01410904
186	0x3db01d17	0.085992984
187	0xc0187ff9	-2.3828108
188	0xc00651a6	-2.0987334
189	0xbd4f2428	-0.05057159
190	0xbe7bd81d	-0.2459416
191	0x3f558d54	0.83418775
192	0x3f155a23	0.5834066
193	0x3ce3da7e	0.027814146
194	0x3e1fcd3c	0.15605634
195	0x3f133044	0.5749552
196	0xbfcdd88f	-1.6081713
197	0xbe617a63	-0.22019343
198	0xbded7458	-0.115944564
199	0xbfd2542d	-1.6431938
200	0xbe74dd72	-0.239126
201	0xbe58efd1	-0.21185233
202	0x3d2f9fed	0.042877126
203	0xbf31e1ab	-0.69484967
204	0xbf1897a2	-0.59606373
205	0x3e867745	0.2626287
206	0x3f23a6ab	0.6392619
207	0xbf983a7d	-1.1892849
208	0x3f35da55	0.71036273
209	0x3eff9cbc	0.49924266
210	0xbfa033b0	-1.2515774
211	0xbf2827e1	-0.6568585
212	0xbf86f73c	-1.05442
213	0x3eaf5d47	0.34250852
214	0xbfaa962a	-1.3327076
215	0x3f68d32b	0.90947217
216	0x3e3de450	0.18544126
217	0xbfa565bd	-1.2921673
218	0x3eeec425	0.4663402
219	0xbfc1827d	-1.5117947
220	0xbf559183	-0.8342516
221	0x3ddcd4f8	0.10782808
222	0xbfdb0b15	-1.7112757
223	0x3f4fbf1e	0.81150997
224	0xbf2fdd31	-0.68696886
225	0xc01730f8	-2.3623638
226	0x3f43c943	0.76478976
227	0xbfb000b9	-1.375022
228	0xbfe62e96	-1.7982967
229	0xbe341a1d	-0.17588086
230	0xbc646e54	-0.01394232
231	0x3f1f2a7d	0.62174207
232	0xbff7db64	-1.9363828
233	0xc003964b	-2.0560482
234	0x3f28b077	0.65894264
235	0xbfc30a6d	-1.5237557
236	0xc01b3dd7	-2.4256494
237	0xbea6569b	-0.3248795
238	0x3f403abf	0.7508964
239	0xbca8f596	-0.020624917
240	0xbd07fd96	-0.033200823
241	0x3e6c4fb6	0.23077282
242	0xc0095656	-2.1458945
243	0x3db09ac4	0.08623269
244	0xbfc0877f	-1.504135
245	0xbcb3ae00	-0.021933556
246	0x3f16a9f6	0.5885309
247	0x3e722ddc	0.23650306
248	0xbf7fc1f1	-0.99905306
249	0x3f4ebdab	0.8075816
250	0xbfa8bc04	-1.3182378
251	0xc0309ce4	-2.7595758
252	0x3ea9ef25	0.33190265
253	0xbe9dfb71	-0.30855897
254	0x3f2fbf5c	0.68651366
255	0xbfeab223	-1.8335613

l3.bias f4 [39]
0	0x3ea90b50	0.33016443
1	0xbdfe113c	-0.12405631
2	0xbed3e1ac	-0.4138311
3	0xbe1ca967	-0.15298997
4	0x3d37f719	0.044913385
5	0x3da22fbb	0.0791926
6	0x3eac6bfa	0.3367613
7	0xbe929a83	-0.28633508
8	0x3e5fda83	0.218607
9	0xbe6a75ba	-0.22896472
10	0xbded205e	-0.11578439
11	0x3e8d9241	0.27650645
12	0xbe256916	-0.16153368
13	0xbd4b8945	-0.049691457
14	0x3ed0eed8	0.40807223
15	0x3e862827	0.2620251
16	0xbe9f39e3	-0.31098852
17	0x3eea4078	0.4575231
18	0x3ccaf875	0.024776677
19	0xbe98328a	-0.29726058
20	0xbe254923	-0.1614118
21	0xbeca33a1	-0.39492515
22	0xbe39f347	-0.18159209
23	0x3e6f9f67	0.23400651
24	0xbd48328b	-0.048876327
25	0xbe1efab6	-0.15525326
26	0x3e30ef03	0.17278676
27	0xbe8f589b	-0.27997288
28	0x3db61e9b	0.08892556
29	0xbdb95d09	-0.09050948
30	0x3ea6b70f	0.32561538
31	0x3edbe4ee	0.42948097
32	0xbf21bffb	-0.63183564
33	0x3e4fb13c	0.20282453
34	0xbe67cef6	-0.22637543
35	0xbe591bdf	-0.21202038
36	0x3b8742b7	0.004127826
37	0xbdd6ee46	-0.10494666
38	0xbdee0994	-0.11622921
